…
        "colab": {
          "base_uri": "https://localhost:8080/",
          "height": 790
        }
      },
      "source": [
        "model.summary()"
      ],
      "execution_count": 0,
      "outputs": [
        {
          "output_type": "stream",
          "text": [
            "Model: \"vgg16\"\n",
            "_________________________________________________________________\n",
            "Layer (type)                 Output Shape              Param #   \n",
            "=================================================================\n",
            "input_1 (InputLayer)         (None, 224, 224, 3)       0         \n",
            "_________________________________________________________________\n",
            "block1_conv1 (Conv2D)        (None, 224, 224, 64)      1792      \n",
            "_________________________________________________________________\n",
            "block1_conv2 (Conv2D)        (None, 224, 224, 64)      36928     \n",
            "_________________________________________________________________\n",
            "block1_pool (MaxPooling2D)   (None, 112, 112, 64)      0         \n",
            "_________________________________________________________________\n",
            "block2_conv1 (Conv2D)        (None, 112, 112, 128)     73856     \n",
            "_________________________________________________________________\n",
            "block2_conv2 (Conv2D)        (None, 112, 112, 128)     147584    \n",
            "_________________________________________________________________\n",
            "block2_pool (MaxPooling2D)   (None, 56, 56, 128)       0         \n",
            "_________________________________________________________________\n",
            "block3_conv1 (Conv2D)        (None, 56, 56, 256)       295168    \n",
            "_________________________________________________________________\n",
            "block3_conv2 (Conv2D)        (None, 56, 56, 256)       590080    \n",
            "_________________________________________________________________\n",
            "block3_conv3 (Conv2D)        (None, 56, 56, 256)       590080    \n",
            "_________________________________________________________________\n",
            "block3_pool (MaxPooling2D)   (None, 28, 28, 256)       0         \n",
            "_________________________________________________________________\n",
            "block4_conv1 (Conv2D)        (None, 28, 28, 512)       1180160   \n",
            "_________________________________________________________________\n",
            "block4_conv2 (Conv2D)        (None, 28, 28, 512)       2359808   \n",
            "_________________________________________________________________\n",
            "block4_conv3 (Conv2D)        (None, 28, 28, 512)       2359808   \n",
            "_________________________________________________________________\n",
            "block4_pool (MaxPooling2D)   (None, 14, 14, 512)       0         \n",
            "_________________________________________________________________\n",
            "block5_conv1 (Conv2D)        (None, 14, 14, 512)       2359808   \n",
            "_________________________________________________________________\n",
            "block5_conv2 (Conv2D)        (None, 14, 14, 512)       2359808   \n",
            "_________________________________________________________________\n",
            "block5_conv3 (Conv2D)        (None, 14, 14, 512)       2359808   \n",
            "_________________________________________________________________\n",
            "block5_pool (MaxPooling2D)   (None, 7, 7, 512)         0         \n",
            "=================================================================\n",
            "Total params: 14,714,688\n",
            "Trainable params: 0\n",
            "Non-trainable params: 14,714,688\n",
            "_________________________________________________________________\n"
          ],
          "name": "stdout"
        }
      ]
    },
    {
      "cell_type": "code",
…
        "FC_Head = addTopModel(model, num_classes)\n",
        "\n",
        "modelnew = Model(inputs=model.input, outputs=FC_Head)\n",
        "\n",
        "print(modelnew.summary())"
      ],
      "execution_count": 0,
      "outputs": [
        {
          "output_type": "stream",
          "text": [
            "Model: \"model_2\"\n",
            "_________________________________________________________________\n",
            "Layer (type)                 Output Shape              Param #   \n",
            "=================================================================\n",
            "input_1 (InputLayer)         (None, 224, 224, 3)       0         \n",
            "_________________________________________________________________\n",
            "block1_conv1 (Conv2D)        (None, 224, 224, 64)      1792      \n",
            "_________________________________________________________________\n",
            "block1_conv2 (Conv2D)        (None, 224, 224, 64)      36928     \n",
            "_________________________________________________________________\n",
            "block1_pool (MaxPooling2D)   (None, 112, 112, 64)      0         \n",
            "_________________________________________________________________\n",
            "block2_conv1 (Conv2D)        (None, 112, 112, 128)     73856     \n",
            "_________________________________________________________________\n",
            "block2_conv2 (Conv2D)        (None, 112, 112, 128)     147584    \n",
            "_________________________________________________________________\n",
            "block2_pool (MaxPooling2D)   (None, 56, 56, 128)       0         \n",
            "_________________________________________________________________\n",
            "block3_conv1 (Conv2D)        (None, 56, 56, 256)       295168    \n",
            "_________________________________________________________________\n",
            "block3_conv2 (Conv2D)        (None, 56, 56, 256)       590080    \n",
            "_________________________________________________________________\n",
            "block3_conv3 (Conv2D)        (None, 56, 56, 256)       590080    \n",
            "_________________________________________________________________\n",
            "block3_pool (MaxPooling2D)   (None, 28, 28, 256)       0         \n",
            "_________________________________________________________________\n",
            "block4_conv1 (Conv2D)        (None, 28, 28, 512)       1180160   \n",
            "_________________________________________________________________\n",
            "block4_conv2 (Conv2D)        (None, 28, 28, 512)       2359808   \n",
            "_________________________________________________________________\n",
            "block4_conv3 (Conv2D)        (None, 28, 28, 512)       2359808   \n",
            "_________________________________________________________________\n",
            "block4_pool (MaxPooling2D)   (None, 14, 14, 512)       0         \n",
            "_________________________________________________________________\n",
            "block5_conv1 (Conv2D)        (None, 14, 14, 512)       2359808   \n",
            "_________________________________________________________________\n",
            "block5_conv2 (Conv2D)        (None, 14, 14, 512)       2359808   \n",
            "_________________________________________________________________\n",
            "block5_conv3 (Conv2D)        (None, 14, 14, 512)       2359808   \n",
            "_________________________________________________________________\n",
            "block5_pool (MaxPooling2D)   (None, 7, 7, 512)         0         \n",
            "_________________________________________________________________\n",
            "flatten (Flatten)            (None, 25088)             0         \n",
            "_________________________________________________________________\n",
            "dense_3 (Dense)              (None, 256)               6422784   \n",
            "_________________________________________________________________\n",
            "dropout_2 (Dropout)          (None, 256)               0         \n",
            "_________________________________________________________________\n",
            "dense_4 (Dense)              (None, 2)                 514       \n",
            "=================================================================\n",
            "Total params: 21,137,986\n",
            "Trainable params: 6,423,298\n",
            "Non-trainable params: 14,714,688\n",
            "_________________________________________________________________\n",
            "None\n"
          ],
          "name": "stdout"
        }
      ]
    },
…
